model_cnn.pth (torch, 435171 bytes, 8 tensors)

conv1.weight f4 [6, 3, 5, 5]
00000000: 5940 f23c e5dc 983d 0c70 1fbe e39b 0ebd
00000010: 8253 ecbc 869c 59be 0587 f6bd 2c63 abbd
00000020: 168c 24be 33cb 4dbd e09f 89be 2ba7 00be
00000030: 7d20 d4bd aa48 f73b 9900 b2bd 32b6 603e
00000040: a0a3 2c3d 0fb1 9cbd c794 3abd e381 a2bd
00000050: e148 e1bd d08e 053d 96a1 473c 461c 3abd
00000060: bc00 ef3b d240 813c 8ca3 b13d cdc1 36bd
00000070: 94bd fe3c 2433 793d 5c3e 203e 2df7 103e
00000080: 9abe 433c 16bb 483e 6637 203e 7de5 8ebb
00000090: 1967 cabd ba10 4d3e 8b5b 843e 983a fa3d
000000a0: dff7 be3e 15de 273e abde 733d 86c8 153e
000000b0: 8c92 023e bf84 e3bd 2795 533e 1771 4c3c
000000c0: a3fa b23d f6af e83d 6311 53bd df61 4f3d
000000d0: 6605 5fbd c0d1 b73c 7fe6 2fbd c7e9 6cbd
000000e0: 1125 f63d 552d 8c3d 1f8f 05be 3bcc a73d
000000f0: c5be 86be df48 5cbe cbaf c03d eff9 ba3b
00000100: 8692 afbc 72a8 663e 123a b5bd 108b b1bd
00000110: c558 e53b c7a6 3abe 3d56 43be 4d32 533d
00000120: eab5 6abe 2a7c 3ebd eea8 2dbe 03f2 9d3d
00000130: db4d 4fbc 2369 963d b942 c1bc 8267 593d
00000140: 5266 183e b324 803d 35f8 633e acae a33d
00000150: b2e9 0a3d a477 523e 2dd6 1c3e 8f30 c13d
00000160: 92e4 733e 6eac 053e 6cd3 b8bd 606c 29be
00000170: 2337 87bd 16bb 64bd 3120 e63d b44e 02bd
00000180: b5a0 f9bd 45c9 5bbe 2bfa 25be 70f8 08be
00000190: 83d0 8ebd ae7f 733d b98f 6cbd a543 4dbe
000001a0: ec96 d1bd f773 9c3b 77df f43c 702a 013e
000001b0: 921c cebd 5d8e 58be 681c 7fbd a1cf 3bbd
000001c0: 76f8 3b3e 658e a5bc 34f3 b2bd b858 46be
000001d0: 9ed6 84be 6932 0f3d 9179 5dbc 52bd fc3d
000001e0: 9afa 1d3e 4778 11bd a251 53be 0c33 1abe
000001f0: 53fb 4ebd 0bc0 82bd 2add 13bc b851 c9bd
00000200: a9d0 28bc 60ce 67bd f6d6 16bd f931 303e
00000210: c806 20bc a046 c63d b6a7 fcbd 4e88 dabc
00000220: ea34 8b3c 98bc 863e 4dcd 253e 3245 3cbc
00000230: 91d8 2cbe 7390 22be d54f cfbc d46f d33d
00000240: 505e 0f3e 670e 093e 8720 1a3e 1c2a 87bd
00000250: f9d5 f4bd 68ee 053e 704c b03d 76d3 373e
00000260: 6188 0abe c43f a4be 6d59 95bd 7043 f33c
00000270: 425f e1bc ab1d fe3b 325d 8cbe 2425 6abe
00000280: 4c94 21be 2e33 7c3d f0fd 02be d031 28be
00000290: 50bb dcbd 6325 e93d 72c9 a1bd 7840 f83c
000002a0: 919b 543e 869f debc 0ba0 eabc b709 913d
000002b0: 5621 ec3d 24ba 533e 1d50 893c 67bc 953d
000002c0: 55df 693e 0de1 a5bd be30 acbe 450a 95bd
000002d0: 20b3 df3d 1bb3 2e3e 6131 a93c eef1 63bd
000002e0: e879 0ebe 0de0 a6bc 3330 0fbb 26bf 3bbd
000002f0: f82a 2c3d c669 8cbd c481 ac3c ce46 12be
00000300: f1e2 5cbd 5186 343e cfc9 103e 61dc a23b
00000310: 7fe9 903d c9d3 1d3e 1cd7 013e 6649 3b3c
00000320: 4ce1 033e ab41 813d ce33 3b3d 8da4 99be
00000330: 021f 39bc cf35 893d d8f1 2b3e 0176 a6bc
00000340: 14ac 65bd 2b11 34be eee0 7b3c f16d 223d
00000350: f4bb 583d 7f7a ee3d 7126 d5bd 8eb5 523c
00000360: e3b4 13bd f5f4 07be 7c3b 503e adb2 fc3d
00000370: 36c6 913c c9e4 e1bd f176 8dbc fb20 f03d
00000380: 636b e5bd 8e64 02be 3995 1fbd 4268 423c
00000390: 9ee8 903d 94ae b9bc 0d68 2fbe a591 b7bd
000003a0: 358d 0abc f182 b43d 7f5b 153d a11a 9f3c
000003b0: 8b18 36bd 076e 40bd 86fb d23c fcd7 a4bb
000003c0: 79f7 48bc 4cd5 e13c ac6a 0a3d 2554 bf3d
000003d0: 5195 65bd c095 833d 2bbd c83d daeb db3d
000003e0: 1bce 1d3e ccb2 8c3d ed6b 0ebd ecf2 e2bd
000003f0: a035 e13c 9cf1 c53d 34cd 373d 388f 8bbd
0.029571699 0.07464007 -0.15570086 -0.034816634 -0.028848413 -0.21251115 -0.12037472 -0.08368525
-0.16069064 -0.050242614 -0.26879787 -0.1256377 -0.10357759 0.007546504 -0.0869152 0.21944502
0.042148232 -0.07650959 -0.04555204 -0.0793493 -0.11000229 0.0326069 0.012184521 -0.04543712
0.0072937887 0.015777979 0.08673772 -0.044618417 0.031096257 0.060839787 0.15648788 0.1415679
0.011947298 0.19602618 0.15646133 -0.004360853 -0.098829456 0.20025912 0.25851092 0.12218207
0.37298486 0.16393311 0.059538525 0.14627275 0.12751216 -0.11109304 0.20662366 0.012478135
0.087392114 0.11361687 -0.051530253 0.050630447 -0.054448508 0.022438884 -0.042944428 -0.057840135
0.120187886 0.06844584 -0.13042878 0.08193251 -0.2631742 -0.21512173 0.0940853 0.005706064
-0.021432173 0.22525194 -0.08848967 -0.08669102 0.0069991075 -0.18227683 -0.19075866 0.051561642
-0.22920957 -0.04650513 -0.16958973 0.07712176 -0.0126528395 0.07344272 -0.023591386 0.05307723
0.14882782 0.06257 0.22262652 0.079923004 0.033914275 0.20553452 0.15316077 0.0943309
0.23817661 0.13054058 -0.090247005 -0.16545248 -0.06602313 -0.05584248 0.11236609 -0.03181334
-0.121888556 -0.21463497 -0.16208713 -0.13376021 -0.06973364 0.059447937 -0.057754252 -0.20045336
-0.10233864 0.0047745663 0.029891713 0.12613845 -0.10064043 -0.21148057 -0.06228295 -0.045852307
0.18356499 -0.0202095 -0.087377936 -0.19369781 -0.2594499 0.034960184 -0.013517753 0.123407975
0.15427628 -0.035515096 -0.20636609 -0.15058535 -0.05053265 -0.063842855 -0.009024898 -0.0983004
-0.010303655 -0.0565933 -0.036826096 0.17206563 -0.009767242 0.096814394 -0.12336676 -0.026676323
0.016993005 0.2631576 0.16191597 -0.011491107 -0.16879489 -0.15875416 -0.025306622 0.10324064
0.14000821 0.133844 0.1505147 -0.065998286 -0.119548745 0.13079226 0.08608329 0.1795176
-0.13528587 -0.320799 -0.07292447 0.029695243 -0.027511243 0.0077550015 -0.27414852 -0.2286573
-0.15779227 0.061572246 -0.12792182 -0.16425252 -0.107779145 0.11384084 -0.07899751 0.030304179
0.20762469 -0.027175676 -0.028640768 0.07081931 0.11529796 0.20676476 0.016761834 0.073113255
0.228391 -0.08099566 -0.33630937 -0.072773494 0.10922837 0.17060511 0.020653429 -0.055650644
-0.13913691 -0.020370508 -0.0021848797 -0.04583659 0.042033166 -0.06856112 0.02105797 -0.14284822
-0.053927366 0.17629363 0.14139484 0.004970119 0.07075786 0.15412821 0.12679714 0.011431074
0.12878913 0.06311353 0.0457037 -0.30008355 -0.011298897 0.06699716 0.16791475 -0.02031994
-0.05607231 -0.17584674 0.015373452 0.03965563 0.05291362 0.11644458 -0.10407723 0.012860669
-0.03606118 -0.13277037 0.20335191 0.12338767 0.01779471 -0.110299654 -0.01726863 0.117250405
-0.11202123 -0.12733671 -0.03896067 0.011865677 0.07075618 -0.022666253 -0.17129536 -0.08963326
-0.008456518 0.088140376 0.03646421 0.019421877 -0.044457 -0.04697993 0.025754701 -0.00503063
-0.012266033 0.027567528 0.033793136 0.09342221 -0.056050602 0.06425047 0.09801706 0.107383445
0.15410654 0.0687004 -0.034770895 -0.1108149 0.02749139 0.09665224 0.04487343 -0.06814426

conv1.bias f4 [6]
00000000: 4e1e a63d aba9 de3c 9281 413e 9826 66be
00000010: d84b 47be 584f f23d
0.08111249 0.027180513 0.18897083 -0.2247566 -0.19462526 0.1183154

conv2.weight f4 [16, 6, 5, 5]
00000000: b6ad cdbc f476 07be 2152 aabe a3c3 87be
00000010: 9c2c 3cbe 40ed 26bd 700a e3bd 9159 12bd
00000020: 18c4 fabd 95f2 80bd 495b d03d eeee 0d3e
00000030: 01c1 563e 447c 713e 5f71 af3d 4cb1 ca3d
00000040: 012c b93d a5ca 3d3e fae3 303e aa54 da3d
00000050: 67bf 94bc 64c2 413a 336b cb3c ffc6 363d
00000060: 8025 b23c ae6c 2f3e 09b4 8dbd 097a 77bd
00000070: 3513 b5bd a74e 16bb 4c52 55bb c35e 1b3d
00000080: 92bc 1b3e f6f2 2e3e 7b57 d43d 127a 7abb
00000090: e089 393d fc1e 28be e38c 33be 5867 a1bd
000000a0: 9fd8 a5bd e615 9fbb 344a ecbd 2b76 243d
000000b0: eb0f be3d a6e4 953c 8e32 11bc 5d18 0bbe
000000c0: d829 d3bd ab7e 663d 9f68 1dbd 4d6b 34be
000000d0: 4549 52be 4c50 f0bd 8dbe 9cbd 8b73 063e
000000e0: 747d 1abe fc9c b0bd 3827 7aba 726e 1ebd
000000f0: 6684 6e3e 8c09 f83d 50b8 3a3e 6239 ef3d
00000100: fa1a 0c3e 38a8 ab3d f807 4ebd 1206 3c3c
00000110: d4c6 363d 63e2 093e bc43 cabc 4b0e 24be
00000120: 6563 79be d33d 10be 4f94 c8bc 8ec5 4ebd
00000130: 44a0 603d f3a5 a1bd 779f eebc 26c3 463d
00000140: be9e acbd 2e1a 38be f3e5 57be 18c1 07be
00000150: 043f 0b3d ef6d 45bb 624f d13a 9322 14be
00000160: 2fd0 13be 83a4 c1bc 0d84 f13d 54ed bb3d
00000170: ca40 083e 7d1f 8a3d ec6f 2ebb e30b 173e
00000180: d680 5d3d 28f5 c33d d8d1 383d 6a59 163e
00000190: 32d0 6abc 3b18 483c 6312 91bd 8b77 eabd
000001a0: ce75 a5bd 50fd 65bc 5174 81bc aef3 73bd
000001b0: d777 27be f32a 80bd 1884 a63d 3207 293d
000001c0: a683 a0bb df9b 8bbd bd21 ed3c b2d8 b5bc
000001d0: 5036 243e b65e b13e bf05 bb3e d2a8 883e
000001e0: c8d6 0bbd 59d0 c9bd add9 44bd 4670 a0bd
000001f0: d383 91bd c57d 483d b9ae bf3d 588d 8c3d
00000200: a9ed 1b3e 60b0 0b3e e8ec 73bd 64f2 ff3c
00000210: 8e4d f73d d3b8 4c3d 209c bebc 8de5 c5bd
00000220: 6e20 9dbd d743 9abe 6b81 adbe 3e6e 91be
00000230: 7c1d 433c 46f0 0cbe 221c 163d 139c c6bc
00000240: b454 47bd 560b 293d 8363 013e c8cb d63d
00000250: ee9e e53d ffff fb3d 6b20 8ebd e261 a7bd
00000260: 402c adbd fb59 2a3d b456 8a3d 5614 7bbd
00000270: 0f98 4cbc 30e1 8abd 9911 67bd c57a c8bd
00000280: 04fb 103b 5036 ee3c 5c3f 90bd e22d 5abc
00000290: 726b 9dbd 44df 5d3d c8c3 7fbd 4544 2d3d
000002a0: 52ae 37bd e604 b6bd 4bee 463d 04b1 c1bd
000002b0: d915 bcbd 8900 a2bd 7048 51bc e25f be3c
000002c0: 28af 94bd ca2d f1bd b504 52bc ef71 7ebd
000002d0: 27c7 d3bd 50d0 cebd 48ac 9ebc 2d10 c23c
000002e0: 96b5 69bd 9510 aebd 27bb e6bd 1f00 8dbd
000002f0: cf23 413d fd5b 89bd 8d79 1bbd da7d 223d
00000300: 0376 55bd e4a4 b1bd ce3f 8abd a66c a73c
00000310: a4e1 dfbd 6b2c 5fbc 9413 583c 081c 433b
00000320: fee5 41bd 0c8e 7f3c e367 6ebd db64 babc
00000330: c6cc 5dbc ef2c 6b3c 9db5 e13c 4e69 44bd
00000340: 0b67 c13c cfbe 28bc c1d7 a4bd a700 ec3c
00000350: e23d 383d 0d91 fabc 4a40 9bbb 4884 0f3d
00000360: b5b5 a23c 9ea4 ccbd 9a95 afbd 3f93 703d
00000370: baad c9bd ffe0 ffbc f3e9 f03c 8c8a bb39
00000380: 984a 96bc ad8e 313a 424b bebc 8c71 cd3c
00000390: 12e5 21bd c4e8 a93b d442 113d 2292 7ebd
000003a0: ee13 0ebd a974 023d c954 e2bb 453a 4fbd
000003b0: 4cec a63c ea8f 2d3d 8bae 55bc 0b47 47bd
000003c0: a328 e7bd bb47 363c a12f a1bd bab2 1dbd
000003d0: e5e7 293c 867e 373a c8f6 fe3c 187b 00ba
000003e0: 6d54 3f3c efd9 3bbd 9184 943c ee69 55bd
000003f0: b8ba c8ba 2047 b6bc 0b2b f2bc 35f1 b2bd
-0.025107246 -0.13228971 -0.33265784 -0.26516446 -0.18376392 -0.040753603 -0.11085975 -0.03572995
-0.12244433 -0.06296269 0.10173661 0.13860676 0.20972063 0.2358256 0.08566546 0.09897098
0.09041596 0.18534334 0.17274466 0.1066068 -0.018157674 0.0007391332 0.02483139 0.04462337
0.021746397 0.17131302 -0.069191046 -0.060419116 -0.08841554 -0.0022935064 -0.0032550273 0.03793217
0.15208653 0.1708487 0.10368248 -0.0038219732 0.045297503 -0.1641807 -0.17534213 -0.078810394
-0.08097958 -0.0048549054 -0.115375906 0.040151756 0.0928038 0.018297505 -0.008862151 -0.13583513
-0.103107154 0.056273144 -0.038429853 -0.17619057 -0.20535763 -0.117340654 -0.07653532 0.13130014
-0.15086919 -0.086236924 -0.0009542587 -0.038679548 0.23292693 0.12111196 0.18234372 0.11680867
0.13682166 0.083816946 -0.05030057 0.011476057 0.04462321 0.13465266 -0.024690501 -0.16021077
-0.24354322 -0.14086084 -0.024484782 -0.05048137 0.05484034 -0.078929804 -0.029128773 0.04852595
-0.08428715 -0.17978737 -0.21083812 -0.13257253 0.033995643 -0.003012534 0.0015969092 -0.14466314
-0.14434884 -0.023638016 0.11792765 0.09176126 0.13305965 0.06744287 -0.0026617004 0.14750628
0.054077946 0.09568244 0.045121998 0.14682546 -0.014331864 0.012212808 -0.07083585 -0.11448582
-0.0807911 -0.014037445 -0.015802534 -0.059558563 -0.16354309 -0.06258192 0.08130664 0.041266628
-0.004898506 -0.068168394 0.028946752 -0.022198055 0.16036344 0.3464257 0.3652782 0.266913
-0.03414038 -0.09854192 -0.048059154 -0.078339145 -0.071052216 0.04894807 0.093594976 0.06862897
0.15227379 0.136415 -0.059552103 0.03124351 0.12075339 0.04998095 -0.023267806 -0.09662924
-0.07672201 -0.30129883 -0.338878 -0.2840442 0.011908885 -0.13763532 0.036647923 -0.024244344
-0.048664764 0.041270576 0.12635617 0.10488087 0.11211954 0.12304687 -0.06939777 -0.081729665
-0.08455706 0.04158972 0.067548186 -0.06129869 -0.0124874255 -0.06781232 -0.056413267 -0.097890414
0.0022122273 0.029078633 -0.07043335 -0.013316603 -0.07686509 0.054168 -0.06244257 0.042301435
-0.04484398 -0.08887653 0.048567098 -0.09457591 -0.091838546 -0.07910258 -0.012773618 0.02323908
-0.07259971 -0.11776312 -0.012818505 -0.062120374 -0.1034072 -0.10098326 -0.01936926 0.023689354
-0.05705794 -0.084992565 -0.11266165 -0.06884789 0.04715329 -0.067069985 -0.037957717 0.039670803
-0.052114498 -0.086740285 -0.06750451 0.02043755 -0.109317094 -0.01362143 0.013188262 0.0029771347
-0.04733848 0.015597831 -0.058204543 -0.02275317 -0.013537591 0.014353975 0.02755242 -0.04795199
0.023608705 -0.010299399 -0.08048964 0.028808905 0.04498089 -0.030586744 -0.0047378885 0.035038263
0.019862035 -0.09992336 -0.08573456 0.058734175 -0.09847589 -0.031235216 0.02940843 0.00035770645
-0.018346116 0.00067732745 -0.023229245 0.025078557 -0.0395251 0.0051852185 0.035464123 -0.06215108
-0.034686975 0.031849537 -0.00690708 -0.05059268 0.020376347 0.042373575 -0.013042103 -0.048651736
-0.11287048 0.0111255 -0.078704126 -0.038500525 0.010370229 0.00069997495 0.031123534 -0.0004901155
0.0116778435 -0.045862135 0.018129619 -0.052102976 -0.0015314436 -0.022250712 -0.02956154 -0.08737413

conv2.bias f4 [16]
00000000: 4e92 3abe 9371 a6bc d3c6 8fbc 2d8b 4f3d
00000010: 9feb bebd b2ed 0cbe 05ce 08be 0ba4 c43e
00000020: 6436 6b3e 090b 2fbe 5c1e 213e 2e2e a33c
00000030: 283c 2c3e 7a1a 193e a75b 843e 3376 76be
-0.18219873 -0.020317828 -0.017550861 0.050669838 -0.09322285 -0.13762549 -0.1335984 0.38406405
0.22969967 -0.17094053 0.15734237 0.019919481 0.16819823 0.14951506 0.25851175 -0.24068527

fc1.weight f4 [256, 400]
00000000: 7f2d b5bb 5e86 17bd 9400 4abc bc9f 1cbd
00000010: ef4e a43c 7534 0b3d 5b3d 8abc 880e b93c
00000020: 7770 163d de46 b63b 4bf8 46bd e84d 63bd
00000030: 7d21 fcbc 86ec 2dbd 9ca9 fb3c 6f11 75bd
00000040: e562 fe3b 25cb 963c 2d10 cabb 6145 5bbd
00000050: bf03 37bc 2f41 cabc a740 db3c 319d c23b
00000060: 158a db3c 8417 a33b 5a84 37bd 934e 9f3b
00000070: 1a50 9ebb d86b 033d 58b4 8b3c 6793 09bd
00000080: eaa9 cd3c ed42 babc 357e a2bc dc26 18bd
00000090: 353a adbb 63a7 07bd 0efd a0bc a314 fcbc
000000a0: 21cb 0c3d 88eb 263d a0af ccbc 3f44 76bc
000000b0: 2ea0 da3c d4d0 843b 769f 563d 3fcc 14bd
000000c0: 632b 4fbd 9c4c 543c af9c 923c cc1a 0fbc
000000d0: 1472 50bc 10b6 babc 634a 00bd 75df 213d
000000e0: 6e09 063c ab8a 013d 1f4c 33bc 49f4 13bd
000000f0: 84be 4bbd ad59 6e3b af17 153d 4aa7 09bd
00000100: a83f 0b3d 654a 8cbc d1bf 113c 9742 923c
00000110: 6a71 ba3c 832a 47bd f4fd 093d 8df2 8f3b
00000120: 89fb f0bc 42c9 b63c cf16 923c 28e7 dc3c
00000130: 45a8 003d fc09 35bd a023 3dbd bc28 58bd
00000140: 7dc8 1cbd c24a ed3c b14c 2bbd 672a b33c
00000150: 693e fa3a 7dbf da3b 4587 5f3c 8f38 0abc
00000160: d011 72bd 0202 1e3b 0193 cc3a 7782 f5bb
00000170: acb8 0dbd fcbe 5cbd 98e1 37bd 486f 3f3c
00000180: 4417 1ebd 4b6e 7a3c 9bff d93c de73 a93c
00000190: cd47 b0bc d930 aabc 223b b0bc 5d03 49bd
000001a0: 9adf 743b 64b4 c8bc 17c9 27bd 5883 4abd
000001b0: 6bee afbc 4ffd d23c 3ead b93c 8a70 4bbd
000001c0: d3f5 ecbc 837f bebb 092d 6b3c 3c85 013d
000001d0: 6d13 3f3d 0bcd be3c b7da 4abd 5c69 393d
000001e0: 97a8 a83c 5770 42bd 0882 6b3b 7fe1 2d3d
000001f0: 2ae9 babc f839 4cbd 3744 993b 2ea3 313d
00000200: a6c5 01bd 84fe cc3b 5274 3abc 4497 2dbd
00000210: e2e3 26b7 f148 43bc 02e2 babc d8a7 7fbc
00000220: 0e52 293d fbb0 843b a4bb 583c 1c2d bb3a
00000230: 1162 143c ce36 07bd 4ea4 cbbc 6be2 083d
00000240: 2828 de3b 3b26 bb3b da6c 48bc 0431 e03c
00000250: b14a 22bc e153 42bd 5071 56bd d983 a83b
00000260: 7e28 2bbd 0bee 573d 18ef 92bc 7a3d 33bd
00000270: ba17 58bd 966f 193d 7c80 39bd 5a0b abbc
00000280: 1bb8 843b 691b debb 5651 f3bc 788b 1d3c
00000290: 9efd f0bc 79d4 1fbc 649a 043d a2ba c6b6
000002a0: e213 393d 4fc3 44bc ca75 58bd 7868 dfbc
000002b0: 7d69 6f3c d763 6ebc c078 32bc 9d14 a43c
000002c0: d741 213d a200 bbbc 7cf5 1f3c b58a 3cbd
000002d0: 11b1 12bd 9c21 a3bc ea7a c83c 60f1 9b3c
000002e0: 253d 40bd 3c41 a4bc 6a34 42bd 4e7d ba3c
000002f0: 0869 25bb b123 2c3d 4267 44bd 287d 8cbb
00000300: 77df 8d3c 25c0 133d 11ac 37bd a637 d2bc
00000310: e29c 9c3b b862 babc 8b2a 77bc b98f 023d
00000320: fc28 1abd 577a cebc 4fc5 f73c 812d 5abc
00000330: b66e 09bc 7ca5 48bb 55a4 a53c 29c7 65bd
00000340: 6380 e0bc f1bb 06bd 88a2 7cbc d44e 46bd
00000350: bf61 73bd d97d 5abd fded c33c 131b 8e3b
00000360: 2b28 be3b 8807 9c3c 3490 61bd 205e 74bd
00000370: 9164 cbbc bbe5 5ebd 7818 9e3c 9119 b03c
00000380: 88b5 5ebd e3a6 edbb 6482 61bd 78ec 2ebd
00000390: 94cf 2ebc 1cb7 edbc aec7 383c e72a 7d3c
000003a0: 0654 1cbc 2393 263d 1913 fb3c 22bc 52bd
000003b0: 8c7e 41bd 19d6 29bc b44e e0bb 4278 29bc
000003c0: 7f85 1cbc d68f 20bd a848 063d d0eb 9a3c
000003d0: fe56 15bb cadb d33a d137 d4bc dba2 153b
000003e0: b4e3 6ebb 9bd6 f2bc bc4a 003b 7a70 89bc
000003f0: 9368 923c 5046 b33c b298 c7bc 28d7 213d
-0.005529105 -0.036993377 -0.012329239 -0.038238272 0.02005717 0.033985574 -0.01687496 0.022589937
0.03672835 0.0055626472 -0.048576634 -0.05549422 -0.030777687 -0.042461894 0.030720524 -0.05983108
0.007763254 0.018407414 -0.006166479 -0.05353296 -0.011170327 -0.024689285 0.026764227 0.005939149
0.026799241 0.0049771685 -0.044803955 0.0048616617 -0.004831326 0.03208527 0.017053768 -0.03358784
0.025105435 -0.02273699 -0.01983557 -0.037146434 -0.00528648 -0.033118617 -0.019651916 -0.03077156
0.034373406 0.040751964 -0.024986088 -0.01503092 0.026687708 0.0040532146 0.052398168 -0.036327597
-0.050578486 0.012957718 0.017896978 -0.008734416 -0.012722511 -0.022791892 -0.03132094 0.039519746
0.008180959 0.031626385 -0.010943442 -0.03612164 -0.049742237 0.003636937 0.03639954 -0.033606805
0.033996254 -0.017125318 0.00889583 0.017854018 0.022759158 -0.048624527 0.033689454 0.004392928
-0.029416816 0.022312764 0.017833142 0.026965693 0.031410474 -0.044198975 -0.046176553 -0.052773222
-0.038277138 0.028966311 -0.041821185 0.021870805 0.0019092086 0.006675659 0.013643091 -0.008436336
-0.05909902 0.0024110083 0.0015607775 -0.0074923593 -0.034599945 -0.053893074 -0.044892877 0.011684246
-0.038596407 0.015285085 0.02661114 0.020685133 -0.021518612 -0.020775246 -0.021512572 -0.049075473
0.0037364722 -0.02450008 -0.04096326 -0.049441665 -0.021475991 0.025755553 0.022665616 -0.049667872
-0.028925812 -0.0058135404 0.014353999 0.031621203 0.046649385 0.023291131 -0.04952499 0.045266494
0.020588202 -0.047470417 0.003593566 0.042451378 -0.02281626 -0.04985997 0.0046773213 0.04336851
-0.031682633 0.0062559266 -0.011380272 -0.042380586 -9.947429e-06 -0.011919246 -0.022812847 -0.015603982
0.04133802 0.004049418 0.013228331 0.0014280411 0.009056584 -0.03301125 -0.02485862 0.033419054
0.0067796893 0.0057113445 -0.0122329835 0.027367122 -0.009905503 -0.047443274 -0.052354157 0.0051426706
-0.041786663 0.05271725 -0.017936274 -0.0437598 -0.052757002 0.037459932 -0.045288548 -0.020879436
0.0040502674 -0.00677817 -0.02970187 0.0096157715 -0.02941781 -0.009755247 0.0323738 -5.9225868e-06
0.045184977 -0.012009456 -0.052846707 -0.027271494 0.014612553 -0.014550171 -0.010893047 0.02002936
0.03936943 -0.02282745 0.009763118 -0.04603072 -0.035813395 -0.019913487 0.024472672 0.019035995
-0.046933312 -0.020050637 -0.047413267 0.022764828 -0.0025239605 0.042026225 -0.047950037 -0.0042873807
0.01731847 0.036071915 -0.04484183 -0.0256613 0.004779444 -0.02275215 -0.015085827 0.031875346
-0.037636742 -0.02520482 0.030245451 -0.013316513 -0.008388212 -0.0030616214 0.020219961 -0.056098137
-0.02740497 -0.03289408 -0.01541961 -0.04841502 -0.05941939 -0.053342674 0.023917193 0.0043367236
0.0058031282 0.01904656 -0.055069163 -0.059660077 -0.024828227 -0.054418307 0.019298777 0.021496566
-0.05437234 -0.0072525605 -0.05505599 -0.042705983 -0.010669608 -0.029017977 0.011278076 0.015452123
-0.009541517 0.040667664 0.030648755 -0.05144895 -0.047239825 -0.010365986 -0.0068453196 -0.010343613
-0.009553312 -0.039199673 0.032784134 0.018911272 -0.0022787447 0.0016163525 -0.025905522 0.0022832665
-0.003645164 -0.029643347 0.0019575795 -0.016777266 0.01787213 0.021884114 -0.024364803 0.03951183

fc1.bias f4 [256]
00000000: 09cc 66bd 2c94 9e3e bb32 373e d690 28be
00000010: ea33 383e a12a f5bd 78d1 29bc e4e6 7dbd
00000020: 13c7 8cbd 87e7 8ebd 5d6b ffbc e75b 2a3e
00000030: 51a6 9bbd 6485 30bd f9d4 96bd 3b65 0bbe
00000040: a776 81bd 50b7 e33d db81 ac3e ab1a c7b9
00000050: 0d1a ce3e f357 953e adaa 77bd 0546 a13c
00000060: 4bef 56bd 968b 48bd 7688 93bd abb9 14be
00000070: cb33 3bbb 30b7 1bbd 57ba c03d 52e1 613e
00000080: 817b 10bd 0a9d 633c 89e6 db3c 1ea8 e0ba
00000090: bd4d 54bd 64f3 6fbc 5af2 2b3e bd5a 75bd
000000a0: aac8 acbc 6a14 4b3e 1ca8 0c3e bf70 9e3e
000000b0: 460f 8abd 7dc2 4cbd 8f02 14bd eef2 43be
000000c0: a6b5 50bd c6bf 743e 731d 1a3f 46e5 a6bd
000000d0: 07f0 4a3d bf72 993e 67fa e73d 133b 063b
000000e0: dd9a 223d 8e71 2abd 923e 79bd acc0 61bd
000000f0: 97db a8bd 3908 8abd c1ae 473c 0872 7c3e
00000100: 2602 2abd 05e0 653d 393f a5bd 270d bc3c
00000110: 39ed 58bd db66 363d 9d82 5abd cbcb e9ba
00000120: 7617 c33e 8e51 323f 5b29 b63c d0b7 60bd
00000130: 82d3 10be d7bc 20bc 39b5 893e 1fe3 563e
00000140: 1309 34bd 7dff 7e3c 46e7 7ebd 27d3 e23e
00000150: 27c1 183e a809 523d e6b7 86bd b768 5b3a
00000160: f356 87bd 24fc ffba 9000 3f3e b764 acbd
00000170: 249e 503d a48a f23e d98a 053f 9c80 fe3e
00000180: 4aec d3bc a5d9 4ebb d237 db3e ee9b cc3c
00000190: dd90 973e b8dd e63d 0ff4 b03e a3e5 453e
000001a0: 600c f6bc 711a 8b3e 359d 143d 28df 123d
000001b0: ffc5 8c3e ce77 d63c e349 bc3e 726f c63d
000001c0: 7575 a93e 1fe2 6cbe 9e60 32be 2706 b7bc
000001d0: c627 d83d 0b09 c6bd 3dcf 353e e056 de3e
000001e0: b51a 2abd 20af 643c 262d c03e bee5 85bc
000001f0: a7ba 82bd fc69 b13e 5c75 d43e 89b6 26bd
00000200: f732 b93c 9951 a03d 36f9 e6bc be7c 523e
00000210: 4d6a 0c3e d93d ddbb c0ae 123e fca6 d8bd
00000220: 744e 923c 5434 40bd 66f1 e13b 8577 c63e
00000230: 79bd b3bc 220a f33e 7482 96bb af3b 66bd
00000240: 08e8 1fbe 56e6 ae3e c553 e8bc 30dc 0bbd
00000250: c12f 243d 5847 813e 32b7 b83b b5f3 2cbc
00000260: 64b9 7fbc 6e71 363f 874e c4bd 1e97 823d
00000270: 4e7c 37bc 60b3 3dbd 79a9 2dbc 76ea cbbc
00000280: 282a 373e ddaf 54bd ebd3 29bd 990d 003d
00000290: 92e2 3b3c c98e 80bd fe93 9d3e 11da 0abd
000002a0: b95e 483e 94f3 0c3f d20c 61bd 4536 033f
000002b0: 7864 8a3e e0c1 9f3e bdd9 11bd 02bf cfbb
000002c0: 4f5c 8bbd 5cb5 1b3c daef 76bd f957 ed3e
000002d0: b0c5 40bd 4fa4 3f3e 0e70 41bc 5df5 a83e
000002e0: 9584 7bbd cebf b03e 9cfd 743e 98f9 bf3b
000002f0: 7e73 c63e 7fc7 4d3e b36a 18bd f207 88be
00000300: 0668 32bd 2246 a23b e8ab 173d b9e5 b43e
00000310: 4a57 363e 05cc 60bd f2fc b93e 92ef a53e
00000320: b1eb 78bc fae7 9cbd 28b1 fabc 708a c43e
00000330: 1ff1 e13e f486 143b 5a31 813d 4edb c13d
00000340: 89b4 a1be c4e0 ffbc e9d6 e0bd e62d ad3e
00000350: b7df 04bc e9ef afbb f153 263e 6b72 16bd
00000360: 3ebb 5dbd 1cfb 693d 6ab5 9b3e e834 8ebb
00000370: 4c46 263e d33b 5cbc 5328 6dbc 0fef 843d
00000380: 5130 9ebd 5422 393e 1f19 a03d ebbb 603c
00000390: 9c51 c63e 70ad 8f3e 0784 d1bd a32a 4bbd
000003a0: 54ce b9bc 5451 b8bb 2cae a4bd 36ef ecbd
000003b0: eed0 5dbd ba4b 99bd 77fc df3d 9255 6fbe
000003c0: 01bf 89bd fed3 ab3e 4af3 adbd 915e 183d
000003d0: 67e5 f2bc b8ba debc 1a46 d7bc d4db 6d3e
000003e0: d17e 63bb 1ca3 573e 794c 993e 015e 72be
000003f0: 63d4 96bd bc89 5bbb e3cd 72bd 4a3c 4ebd
-0.056346927 0.3097242 0.17890446 -0.164615 0.17988554 -0.119710214 -0.010364883 -0.061987773
-0.06873908 -0.06977754 -0.031179124 0.1663662 -0.07600082 -0.04309596 -0.0736484 -0.13612835
-0.06321459 0.111189485 0.33692822 -0.00037976107 0.4025425 0.29168662 -0.060465503 0.019686708
-0.0524743 -0.048961245 -0.07203762 -0.14523952 -0.0028564807 -0.038016498 0.094105415 0.22058609
-0.035274033 0.0138924215 0.026843326 -0.0017139947 -0.05183195 -0.014645431 0.16791669 -0.059900988
-0.021091778 0.19832006 0.13736004 0.30945393 -0.067411944 -0.049990166 -0.036135253 -0.19135639
-0.050954483 0.23901281 0.60201186 -0.08149199 0.049545314 0.29970357 0.11327057 0.0020481988
0.03969847 -0.0416122 -0.060850687 -0.055115387 -0.082450084 -0.067398496 0.012187661 0.24652874
-0.041505955 0.056121845 -0.080686994 0.02295549 -0.05296061 0.044531684 -0.05334722 -0.0017837224
0.38103837 0.6965569 0.022236517 -0.054862797 -0.14143184 -0.009810648 0.26896074 0.20985077
-0.043953966 0.015563843 -0.06223228 0.4430172 0.14917432 0.05127874 -0.065780446 0.0008369791
-0.06608381 -0.00195301 0.18652558 -0.08417647 0.050932065 0.473714 0.5216499 0.49707496
-0.025869507 -0.0031562832 0.42816025 0.024976697 0.2960271 0.11272758 0.34561202 0.1932588
-0.030035198 0.2716861 0.036282737 0.03585735 0.2749481 0.026180174 0.3677512 0.09689225
0.33097425 -0.23133133 -0.17419669 -0.0223418 0.10554461 -0.096696936 0.17754836 0.43425655
-0.041529376 0.013957769 0.37534446 -0.016344901 -0.06383257 0.34651172 0.41495788 -0.040701423
0.02260731 0.078280635 -0.028195005 0.20555398 0.13712426 -0.0067517576 0.14324474 -0.10578725
0.017859675 -0.046924904 0.006895232 0.3876306 -0.021940934 0.47468668 -0.004593188 -0.056209262
-0.15615857 0.34160107 -0.028360257 -0.034145534 0.040084604 0.25249743 0.005637073 -0.010556151
-0.015608165 0.7126683 -0.095852904 0.063764796 -0.01119907 -0.046313643 -0.010599487 -0.024892073
0.17887175 -0.05192553 -0.041461866 0.031262968 0.011467593 -0.06277234 0.30776972 -0.03389937
0.19567384 0.5505917 -0.054943867 0.51254684 0.27029777 0.31202602 -0.035608042 -0.0063399086
-0.06804716 0.009503689 -0.060287334 0.4635618 -0.04706353 0.18715023 -0.011806501 0.32999697
-0.061405737 0.34521335 0.2392487 0.0058586113 0.3875999 0.20095633 -0.03721113 -0.26568562
-0.043556236 0.004952208 0.037029177 0.35331514 0.17806736 -0.05488207 0.36325794 0.3240934
-0.015192912 -0.076614335 -0.030602053 0.3838687 0.44129273 0.0022663446 0.06308241 0.09465657
-0.3158305 -0.031235106 -0.10978491 0.3382408 -0.008109978 -0.0053691757 0.16242959 -0.03673021
-0.054133646 0.057124242 0.30411845 -0.004339803 0.16237754 -0.013441998 -0.014474946 0.06490909
-0.077240594 0.18079501 0.078172915 0.013716678 0.38734138 0.2806201 -0.1023026 -0.04960121
-0.022681393 -0.0056249294 -0.08041033 -0.11569063 -0.05415433 -0.07485147 0.10936826 -0.23372486
-0.06725884 0.33560175 -0.08493669 0.03719956 -0.029650403 -0.027188644 -0.026278544 0.23228389
-0.003471304 0.21058315 0.29941157 -0.23668672 -0.07364728 -0.0033498844 -0.05927838 -0.050350465

fc2.weight f4 [10, 256]
00000000: 8f34 87bc 29b7 ed3d 8548 133d 5ffa 16be
00000010: 183a a43d 6a34 863d 8462 1a3d 9ebc 80bd
00000020: cd4c 313e a25f c63b 802a b43c b5d1 5dbc
00000030: a20c 6cbd c4c5 cdbb 50b5 52bd a8b7 f93c
00000040: 1ced 15bd e6f3 acbc 18e3 953c 26d1 cabd
00000050: 5fa2 843d 21cf 8dbd 4401 333d 6619 0e3d
00000060: 6cb7 34bd 4da2 f8bc e7b1 2b3d bc80 513d
00000070: a975 20bd 7469 35bd 644f 5bbe 3c6a d5bd
00000080: 2751 01bd f547 6dbe 6b56 32be 67b3 8abc
00000090: cba6 c7bb 13d3 81bd 40cd 943e 3b0a c7bb
000000a0: 214c 683e 279a babc 4ae0 0fbe 1c4d 9dbd
000000b0: 6536 f3bc cd0d 22bd 5b68 ca3c 06cd 26bd
000000c0: 32f2 613c 0dcf 9b3c d336 8b3d 720f 78bd
000000d0: bb0d a0bc f649 ff3c c248 69be 44fb 49bc
000000e0: 7fd3 0ebe 584d 7cbc bb29 07bd 1ea9 cbbc
000000f0: 6da5 b53b 0eae 09be 2fcc b3bc cdd6 b1bd
00000100: 3b33 64bd f1f1 4dbe eee9 8dbd 4fab 893b
00000110: da1c 073c 8aec 7bbe 845f 86bd 0fa1 38bb
00000120: fcc8 af3d 9764 df3d 332d 4a3e 5eb6 4dbd
00000130: 0d3f 1d3e a48d 223d a7c4 423e ffc4 9cbc
00000140: fec9 8abc eab3 ca3d 3e09 323b ffde 023e
00000150: 10e9 fbbd 0680 a7bd 01e4 e5ba d746 d23d
00000160: a2dd 4cbd aa0f e9bb d702 bc3d 5c2f 59be
00000170: b95d 033d 7330 843e fef1 dd3d bb31 ab3d
00000180: f00c 0f3c a6c2 24be 7373 153d d748 0a3d
00000190: a0a8 eabd a9e7 60ba 8e88 47be ee81 4fbe
000001a0: 4c57 21bc 598e 653d bb65 de3d 5675 ca3d
000001b0: 7737 b63d 822d 44bd 45b2 2f3c 5b4b 893d
000001c0: 92e0 3abd d74a b23d 19e9 d23b 8376 8a3b
000001d0: ac36 183d 1d44 013d e13a 59be 9c84 c93d
000001e0: a7f1 9bbc 07ad e1bc 7ab5 a3be b5fe 033d
000001f0: 6ca3 a9bc bb3d fdbd 397d bc3d f8dd 1b3c
00000200: 5ada e7bd ef9c 34be 8cd0 e5bc 302a 63be
00000210: 77fc cd3d d07c 86bd 74bb 013e 0803 fdbd
00000220: 6ae2 aabc 3988 e63c 3547 003d 827c 713d
00000230: 4ecb 68bd 62b1 b4be 0485 e1bd b833 d3bc
00000240: 579b a63c 5565 03be 293e f33c 75d9 8bbd
00000250: 37be 2cbc 6615 e93d bfb9 2f3d ecc7 53bd
00000260: 0914 acbd bfad dc3d 5a02 90bd c0a9 17be
00000270: e29d 6cbe f215 27bd 4d0b 1d3e 78f3 1b3d
00000280: 46bc 3f3e 2260 bebd 3819 b8bb cd3a 1e3d
00000290: 0f78 2d3d 084f f6bc d497 b23d fb51 053d
000002a0: 8556 953d 1457 093e 0d3e 30bc 316e 2e3e
000002b0: 03f7 3bbe 1f07 c0bd c5d2 40bd 3b49 523d
000002c0: 950c 173c 819d 1c3d 5f87 c6ba 8901 22be
000002d0: 5af0 8fbc 8227 0bbe 23f3 07bd 8ce1 243e
000002e0: 363b aabd da0a 263e 1cb4 343c eb0a 74bd
000002f0: 1918 f33d 6ddf 413e 1992 4fbd 239a 95bb
00000300: ae01 ae3d abee cc3d 9dd7 8fbd e902 72be
00000310: 7b53 9fbd aeb6 e03c a35b afbd 243d 523d
00000320: 2c98 223c e557 1fbd 3c9f 023a 08a1 b13d
00000330: e41f 0f3e 3903 643c 7ec6 dfbd 55cb f73c
00000340: d813 c5bc 195d b3bc 7193 fd3d 4fd6 583e
00000350: 992f 01bd e619 dd3d b241 69be e149 09bd
00000360: 69a6 d43c ce59 263e cd67 2abe 1061 5fbd
00000370: 6afe 86be 1e50 fabd 58fa c5bc 442b febd
00000380: a5ea 0abe 0363 503d 3f8f 613d ecce 48bd
00000390: da7d ab3d dea6 c7be 56ac 023e 3afa dbbc
000003a0: 82a7 c3bc 8a61 ea3c d149 82bd ef0c ab3a
000003b0: 341c 23bd f02a ea3c 2f4d 9fbe ae57 003c
000003c0: d2b2 f2bc 5b75 f0bc 02ff 88bd 8949 54be
000003d0: fbe0 86bc 0c5a 003d 1d99 ddbc dbd6 06be
000003e0: f792 4e3d 542a 333d 7568 18be 7fc1 efbd
000003f0: 31ca fcbc 7476 e0bc 4f89 61bd 513e fdbc
-0.016504554 0.11607201 0.035957832 -0.14743946 0.08018893 0.06552966 0.037691608 -0.06285976
0.17314453 0.006053881 0.021992922 -0.013538768 -0.057629235 -0.006279679 -0.051442444 0.030483082
-0.03660308 -0.021112394 0.018296763 -0.09903173 0.06476282 -0.06924272 0.04370238 0.03469219
-0.044120237 -0.030350829 0.041917708 0.05114816 -0.03917471 -0.04429002 -0.21417004 -0.10420653
-0.031571534 -0.2317198 -0.17415778 -0.016931249 -0.0060928813 -0.06339087 0.29062843 -0.0060742176
0.22685291 -0.022778584 -0.14050403 -0.07680723 -0.029689023 -0.039563943 0.024707964 -0.04072287
0.013790654 0.019019628 0.06797566 -0.060561605 -0.019537797 0.031163197 -0.22781661 -0.012327973
-0.13947867 -0.0153993 -0.03299878 -0.024860915 0.005543402 -0.13445303 -0.021947948 -0.08683548
-0.05571292 -0.20111825 -0.06929384 0.00420133 0.008246625 -0.24601951 -0.06561187 -0.002817217
0.085832566 0.10907858 0.19743805 -0.050222747 0.15356083 0.03968586 0.1902033 -0.019136904
-0.01694202 0.09897597 0.0027166153 0.12780379 -0.123003125 -0.081787154 -0.0017539264 0.10267418
-0.050016053 -0.007112463 0.09180229 -0.21209472 0.032071803 0.25818214 0.10837172 0.08359095
0.008731112 -0.16089877 0.036487054 0.03376087 -0.11457944 -0.0008579442 -0.19485685 -0.20264408
-0.009847473 0.056043956 0.10859247 0.09885661 0.08897298 -0.047894962 0.010723655 0.06703826
-0.045624323 0.08705681 0.006436479 0.0042255535 0.037161514 0.0315591 -0.21213867 0.09839746
-0.019036127 -0.027548326 -0.31974393 0.03222533 -0.020707808 -0.1236529 0.09203572 0.009513371
-0.11320944 -0.1763799 -0.028053544 -0.22184062 0.100579195 -0.06566775 0.12669164 -0.12354094
-0.020859916 0.028141128 0.03131791 0.05895663 -0.05683451 -0.35291582 -0.11011699 -0.025781497
0.020337744 -0.12831624 0.029692726 -0.06828586 -0.010543398 0.113810346 0.04290175 -0.051704332
-0.08402259 0.10775327 -0.070316985 -0.14810848 -0.23107103 -0.040792413 0.15336342 0.038073987
0.18724164 -0.0929568 -0.0056182407 0.038630296 0.042350825 -0.030066982 0.08720365 0.032548886
0.07291893 0.13412124 -0.010756982 0.17034222 -0.18355946 -0.09376358 -0.047076005 0.05133937
0.009219308 0.038236145 -0.0015146545 -0.15820898 -0.017570663 -0.1358929 -0.033190858 0.16101664
-0.08312075 0.16215077 0.01102927 -0.059580725 0.11869831 0.18932886 -0.05067644 -0.0045654937
0.08496414 0.1000646 -0.07023547 -0.23633923 -0.077795945 0.027430858 -0.085624 0.05132784
0.009923976 -0.038902182 0.0004982834 0.086732924 0.13977009 0.013916784 -0.10926531 0.030248323
-0.024057314 -0.021894978 0.12381638 0.21175502 -0.031539533 0.10795955 -0.22778967 -0.033517722
0.025958257 0.16245195 -0.1664116 -0.054535925 -0.26365978 -0.122223124 -0.024167225 -0.12410596
-0.13566072 0.050875675 0.05506825 -0.04902546 0.08373614 -0.38994497 0.12761053 -0.026852716
-0.023883585 0.028610963 -0.063617356 0.0013050119 -0.03982182 0.028584927 -0.31113574 0.0078334045
-0.029626284 -0.029352834 -0.06689264 -0.20731176 -0.0164647 0.031335875 -0.02705055 -0.13167898
0.050433125 0.04374154 -0.14883597 -0.11706828 -0.030858131 -0.027400233 -0.05506259 -0.030913504

fc2.bias f4 [10]
00000000: 1cd5 85be 7f3e f3bd 164e 2dbe 17cf ec3d
00000010: 69ad cf3e 1f29 18be fa1a b0bd 86b5 c8bd
00000020: 8b0c 7a3e 9975 f93d
-0.26139152 -0.118771546 -0.16924319 0.11562937 0.4056199 -0.14859436 -0.08598895 -0.09800248
0.24418847 0.12180633
